char-rnn-classification.pt (torch_old, 110859 bytes, 4 tensors)

weight f4 [128, 186]
00000000: 820f 213e 3d97 aa3d 8a7c 353e 7b53 4e3e
00000010: a3f8 963d 6f20 743c df56 1d3e 0cbc 2abe
00000020: caca 193e df2a abbd 0b06 143e 264f 0d3e
00000030: ac2a 0dbc 3362 963c fca2 453e 0a9f e0bc
00000040: 56d8 e53c bc78 9f3c d704 193e 7bac 1abe
00000050: 2e3a b2bd aa86 893d c16f 47bd 5c35 673d
00000060: 79bc 20be 6a37 973e 7434 55be 3808 d5bd
00000070: 33b3 a1bc e397 d9bd bf60 363d 2fc8 bd3b
00000080: d2dd 63bd 77e0 8bbd 96c1 da3d 5054 e13d
00000090: a3ab 5abe 057d 99bd 7863 003d 7743 f0bd
000000a0: 3e8b 68bd f60a 6abe 23d0 1fbe d739 963d
000000b0: f1db 75be f05c 7c3d de19 9e3b 238a 6bbe
000000c0: cd77 803e 846b b9bd d09c edbd 1ee3 833d
000000d0: 1d95 233c 93e3 1bbd 10da 513d 2a95 30bd
000000e0: d5cc c8bd 16b9 8cbc 8d11 833c 31ca 13bd
000000f0: b0b7 623d 3a2b 67bd 01e1 dcbc 9b6b 053b
00000100: 7517 043d 8cb2 c93c 71ca e5bd a823 283d
00000110: bb0c aa3c d746 dc3d bb8f 4abd 732f 233d
00000120: 7932 ffbb 7264 8cbd f728 8d3d 6b03 cabc
00000130: 4d23 9c3d 2b3e 593d 64ce 243c 9a1e 9abd
00000140: 095e 4c3d 2d9b c43d 8617 9f3b 9bbb 6dbd
00000150: eab7 683d 97f6 8bbd fb96 a23d 3b57 51bc
00000160: c844 64bc 22e3 55bd 293f 59bd 8081 263d
00000170: 11d2 643d 142a 41bd 8986 513d 2000 93bd
00000180: f6e2 38bd 2311 86bc e638 cb3d 88a0 8f3c
00000190: 4df2 1b3d 646f 163d 4126 323c 2c02 babd
000001a0: ac53 733d 68b3 ec3c b45b c83d 3c2e 42bd
000001b0: 833f 563d 183b 90bc 975a 9e3d 9a54 62bb
000001c0: 8fff abbd dfe8 6f3d 00f5 9b3b f04a c1bd
000001d0: 9d01 40bd d382 5b3c 4418 23bd 07c5 343d
000001e0: 0fa0 36bc 095f e13d f0bc dc3d 3e7b a2bd
000001f0: 47fd 0dbd e413 153d 2bfc e6ba 803b 9ebc
00000200: 8d8c c73b af54 0ebd c875 673c 1133 d03c
00000210: 510e 373d f982 dd3c 0d1a 0c3e a524 b4bc
00000220: ee4a 6ebc 4617 063d 0233 adbd 219f c43d
00000230: f892 40bc 58d6 1bbd 099e fcbd 4f39 13bd
00000240: def5 aabc 1f40 07bd 417e 5fba f02c cbbd
00000250: 4b3f c33d 135f 3ebd 2742 cf3d a0d8 213d
00000260: 2aff e0bd e026 3d3c f1fe d63c 532b 483c
00000270: 8d26 793d 86c7 52bc 3d46 b9bc 1bc9 a3ba
00000280: b2bf abbd 606b 26bd 7af5 0b3d 4faa 89bd
00000290: 7a28 4dbd 8f57 53bc db98 b43c bdca 8cbd
000002a0: b153 b03c 0a51 c2bd ec65 99bc a699 e63d
000002b0: b57d cc3c 82e4 79bb cb04 5d3d 35b1 b4bd
000002c0: cf42 653c d0e0 be3c 1067 55bd bd64 1f3d
000002d0: 058b 3f3d 9758 4b3c ace4 9b3d 0a31 8bbd
000002e0: 9289 24bb 743f 0d3d 9027 923d 1aa0 1cbe
000002f0: 6e3a 5cbd 15c6 f43d a5f6 743e 7202 e7bc
00000300: b235 ea3d c47c 33bd 54cd 9d3c b53c fe3a
00000310: de3d 3dbf 6f6f d03c d399 4dbe 39cd ba3e
00000320: 641f 65bd b397 793e 6620 d13d 6b2b 873e
00000330: 6e8a 643e 8344 ff3d f22c 9a3c 63e1 8cbd
00000340: 57b0 a43d a779 b5bd ebf6 a1be 68be 993e
00000350: af96 b3bd d8ce 883c 40f0 193e b8c8 4abc
00000360: 9a23 52bd 5c80 c6bd 9fcc 14be faad f53d
00000370: 22a8 04bd b851 c43d 3b25 cabd 3782 1dbc
00000380: a501 b0bd 94bd ce3d 3767 7fbe 8a59 fd3d
00000390: b60a 2fbe 0372 673d 17d9 d93d 6165 a43c
000003a0: 6163 8a3c 60db ed3d bff6 70bd c1dd 12be
000003b0: 522b 703d 66ce 5dbe f983 b13c bc70 e23c
000003c0: 9cfa 31bd 76d0 673d 1145 54be 707d 3cbd
000003d0: 618f 5c3d 035f 063e 16d1 413d e689 07bd
000003e0: 92fe 443c 96e9 233e 0848 95bd 8d0b bb3d
000003f0: d16e a03b 1a93 183d 6ebd 873c 53af cc3d
0.15728572 0.08329628 0.17723289 0.20149033 0.073716424 0.014900311 0.1536517 -0.16673297
0.15018764 -0.083577864 0.1445543 0.13799724 -0.008616131 0.018357372 0.19300455 -0.027419586
0.028057259 0.01946675 0.14943253 -0.15104859 -0.08702503 0.06715138 -0.04869056 0.05644737
-0.15696897 0.29534465 -0.2082079 -0.10401958 -0.01973877 -0.10624673 0.044525858 0.005791686
-0.055631466 -0.06829923 0.10681455 0.110024095 -0.21354537 -0.07494549 0.03134486 -0.11731618
-0.056773417 -0.22855744 -0.15606742 0.07335251 -0.24009682 0.06161207 0.004824861 -0.23001914
0.250914 -0.0905371 -0.11602175 0.064398035 0.009984282 -0.03805883 0.05123335 -0.043111004
-0.098046936 -0.0171781 0.01599958 -0.036081497 0.05535096 -0.05643771 -0.026962759 0.0020358327
0.032248933 0.02462127 -0.11220253 0.04104963 0.020758023 0.10755699 -0.04945348 0.039840173
-0.007787999 -0.06855096 0.06892579 -0.024659833 0.076239206 0.053037804 0.010058973 -0.07525368
0.049894366 0.0959991 0.004855099 -0.058040243 0.05681602 -0.06834143 0.079389535 -0.012777145
-0.013932414 -0.052218564 -0.05303875 0.040650845 0.055864397 -0.04715927 0.051153693 -0.07177758
-0.04513832 -0.016365593 0.09922962 0.017532602 0.038072873 0.036727324 0.010873378 -0.090824455
0.059405968 0.028894141 0.09783116 -0.047407374 0.052306663 -0.017606303 0.077321224 -0.003453529
-0.08398353 0.058571693 0.004759431 -0.09438121 -0.04687654 0.01339789 -0.039818063 0.044133212
-0.011146559 0.11004455 0.107782245 -0.07933663 -0.034665372 0.036395922 -0.0017622759 -0.019315481
0.006089753 -0.03474873 0.014127202 0.025414975 0.044691388 0.027039992 0.13681813 -0.02199013
-0.014544232 0.03273704 -0.084569946 0.09600664 -0.01175379 -0.03804621 -0.1233483 -0.035943326
-0.020869192 -0.033020135 -0.0008525588 -0.099206805 0.095335566 -0.04647739 0.101200394 0.03951323
-0.10986169 0.011544913 0.026244612 0.012217361 0.06082778 -0.012864953 -0.0226165 -0.0012495847
-0.08386172 -0.040629745 0.03416965 -0.06721937 -0.05008743 -0.012899294 0.022045543 -0.06874607
0.021524282 -0.09488113 -0.018725358 0.11259775 0.024962286 -0.0038130586 0.05395965 -0.08822862
0.013992979 0.023300558 -0.05210024 0.03891443 0.04676344 0.012411258 0.07611975 -0.06796463
-0.0025106412 0.03448434 0.07136452 -0.15295449 -0.05376666 0.11951844 0.23922212 -0.028199408
0.11436023 -0.043820158 0.019262947 0.0019396754 -0.73922527 0.02544376 -0.2007821 0.36484697
-0.05593814 0.24374275 0.10211258 0.26400313 0.22318432 0.124642394 0.01882026 -0.068789266
0.08041447 -0.08861094 -0.31633696 0.3002808 -0.08768975 0.016700193 0.15033054 -0.012376957
-0.051303484 -0.09692451 -0.14531182 0.11996074 -0.032386906 0.09585899 -0.098703824 -0.009613565
-0.08594064 0.10094753 -0.24941717 0.12370594 -0.1709393 0.056505214 0.1063711 0.020067872
0.01689309 0.11614108 -0.058829065 -0.14342405 0.058635063 -0.21660766 0.021669375 0.027641647
-0.04345189 0.05659529 -0.20729472 -0.046018064 0.053847674 0.13122182 0.04731854 -0.033090495
0.012023585 0.16007075 -0.072891295 0.091330625 0.004896023 0.037249662 0.01656982 0.09994378

bias f4 [128]
00000000: a981 843d 8d0a 153c 1f2b 6d3d faaf b0bc
00000010: 4942 9bbb 41c9 d6bc e6c7 41bd 3af3 87bd
00000020: 7ada 4bbd 22f0 633d fdc4 013b ed4c cfbd
00000030: e032 6dbd 44dd 33bc 6107 25bd 9611 093d
00000040: 7b85 b3bc 1d61 b1bd 2f9d e1bd 0326 b33d
00000050: d4d5 2fbd 7b6d ee3b eadc acbd 9c39 ef3c
00000060: 834d a13d 0119 fdbd 770f 42bc 305e 7dbc
00000070: fb2f 0c3d 7b4e 21be 602e 923d bad5 45bb
00000080: b07c 023d 6ad9 da3d d74d ad3c da32 c7bc
00000090: ee56 b13c 9504 ce3b 077f 853d 0f90 b0bd
000000a0: 2dc1 e73c 74b8 25be e53f bb3d 3ac7 ef3c
000000b0: ae5a a63c b884 5bbd dc45 0a3d 23f0 53bd
000000c0: becc 063e 656b 1dbe 7c9b d63d 91d5 e2bc
000000d0: d6f6 333d ef29 e73d d963 f6bd 626e febc
000000e0: 717c 493d 5f45 1c3e d520 88bb 8ed2 c13d
000000f0: 7042 a7bd b1d4 4f3d 363a 77bc 6da8 093d
00000100: a7ef 4c3d cded 5e3d 1c31 b6bd 3fe1 90bd
00000110: e52b b1bc b5a7 3d3d 6dd5 3fbd b045 db3c
00000120: b440 043e 85fe 1d3d 7296 733b 657a 483d
00000130: d3ce 6dbd 7150 43be e59e f93d 14c2 a23d
00000140: b390 5dbd 9706 90bd 10e1 11be 1d0c a83d
00000150: ab30 9dbc a178 b4bd ba37 17bd d35c b23d
00000160: a674 76bd ae9f 093b 6c57 173c 52a2 cf3b
00000170: 3e2b 0cbe c93b a5bd 9cba fa3c 9f48 ab3d
00000180: 4c39 33bd da78 cf3c 035f debd b055 7139
00000190: d67d 0ebe 7a0f 2abd f4ed b53d b493 743b
000001a0: b5e3 67bd 7a0f aabd fb1e 3fbc 2220 9ebd
000001b0: e147 963d 356c 9d3c ef67 b43d 7062 123d
000001c0: 69db 973c e0f7 67bd 2ae7 89bd d8f5 523d
000001d0: 7cf9 b93d c969 c5bc fc0b 56bd d014 0cbd
000001e0: 711a 373d 7e12 93bb f288 2ebd de3b bd3c
000001f0: 4711 183d 1282 27bd 33a1 b03d 68bf 27bd
0.06470043 0.009096754 0.05790245 -0.021568287 -0.0047381264 -0.026219012 -0.04730978 -0.06638189
-0.049768902 0.05564893 0.0019801252 -0.10122094 -0.057909846 -0.010978047 -0.04029024 0.033464037
-0.021914234 -0.08661101 -0.110163085 0.087474845 -0.04292853 0.0072762347 -0.084405735 0.029202275
0.07876112 -0.12358285 -0.011844507 -0.015464351 0.034225445 -0.15752594 0.071377516 -0.0030187205
0.031857193 0.10686 0.021155281 -0.02431624 0.021647897 0.0062871673 0.06518369 -0.08621227
0.028290356 -0.16183645 0.09143046 0.029269803 0.020306911 -0.053593367 0.03375803 -0.051742684
0.1316404 -0.15372999 0.10478875 -0.027689727 0.043936573 0.11287295 -0.12030763 -0.031058494
0.049190942 0.15260838 -0.0041543045 0.09463988 -0.08166969 0.050739948 -0.015089562 0.03360789
0.050033238 0.054426003 -0.088960856 -0.07074212 -0.021627376 0.046302516 -0.046834398 0.026766628
0.12915307 0.038572807 0.003716853 0.04894485 -0.05805857 -0.19073655 0.1218851 0.07947174
-0.054093074 -0.07032507 -0.14246011 0.082054354 -0.019188246 -0.08812071 -0.03691838 0.08709111
-0.06016984 0.0020999718 0.009237152 0.0063364888 -0.1368837 -0.08068044 0.03060656 0.08363461
-0.043755814 0.025326181 -0.10857966 0.00023015472 -0.1391519 -0.041518666 0.088832766 0.0037319483
-0.056613643 -0.08303733 -0.011665101 -0.077209726 0.073379286 0.019216636 0.08808886 0.03573841
0.01853724 -0.056632876 -0.06733544 0.051503986 0.090807885 -0.024098294 -0.052257523 -0.034199536
0.04470295 -0.0044882884 -0.04261107 0.023099836 0.037125852 -0.04089553 0.08624496 -0.040954024

weight f4 [18, 186]
00000000: d5b8 ed3e 75a3 6c3f a7df 19be b9c5 4f3f
00000010: ce8b 72bf 69e6 563f 3f6a 9dbe 22ec 003f
00000020: cecd ea3e f3d6 16bd 60df 0fbf 4f46 b1be
00000030: 2b67 013f 28c2 47bf 4739 57bf 9195 97bd
00000040: b0fb 8c3c 44b9 0c3f bca7 863d 34bf edbe
00000050: 14d3 f3be 315e 62be 5c07 93bd c420 1abe
00000060: 966f 593e 71dc 6ebd d9d1 22bd 7b7c fc3c
00000070: 44ad 44bc af23 853d 967f d6bc 6064 2f3b
00000080: 2a4e 6c3d 7087 6dbd 423f 91bd 6ab8 42bd
00000090: 98f5 18bc d8f5 933c 4e3b 24bd ee71 1dbd
000000a0: 9ff1 0f3d b68b 4e3d 0534 48bd f7b1 cb3c
000000b0: 3019 8f3b 341c a43c ba94 60bd 80eb 793b
000000c0: 098c 803d e04b 66bc 965c 3c3d 806c d83a
000000d0: 176c 5cbe 33d9 35bd 32cd 94bd c2cb dcbc
000000e0: 61b0 8f3d 446b bb3c 7819 cfbc a24b 02be
000000f0: f926 15bd df47 b33c 2a2f 023e a2b0 83bd
00000100: 5e62 2ebe 71dd d2bd 8da1 4b3e 19f7 10bd
00000110: 671c a2be 8557 7c3e ca51 283e f710 703e
00000120: 55ba f2bd 73e8 ebbd 100b 653e 93a4 c83d
00000130: ec06 2d3e 69cc fd3c e6d7 9d3e d585 d33e
00000140: 5414 10be 5c23 873c 611c d4bd 63e9 803e
00000150: 82d5 93bd 44d4 2e3d 782d 82be b1a5 123e
00000160: eb85 f1be 4e38 51bd c944 bfbc aecb 21be
00000170: 41eb 403d 438c 2dbe 3f83 253e 51c4 27be
00000180: 883c f23e d0f4 3abe a3a4 bcbd bcaa d73e
00000190: 6ac9 193e e56f 1f3c 418f 82bd 16e5 133e
000001a0: 430c 60be 3a1e 3b3e f185 cebd ee5d 31be
000001b0: a65d 7dbd 7c29 db3e 0409 8abd 6d4d 4abe
000001c0: 8656 de3e ff29 643e 0bdc 2cbe 62e2 e9be
000001d0: 9dbc 003f 9d12 fb3d e22c 6e3e 7437 563e
000001e0: 1c9d 09be 4552 323e c4de 66bc cd61 17bc
000001f0: 7503 d3bd 99a5 af3e 4ac7 b13e 2580 623e
00000200: 97f0 413d d827 f1bd 9a5e babe e9c5 a6be
00000210: 04e6 9d3d 5b60 19bd 9911 0abe c09e 883e
00000220: 96b3 0c3e 110c b83e a6d7 96be d3d5 96be
00000230: c328 3b3d 3dbb c2bd 9b60 0bbe 699d 013d
00000240: 4579 57bd 9335 74bd 0554 c2bd e33b 21bb
00000250: 2038 db3d 319e 1e3e 56f2 6abe 96e3 683e
00000260: b3ba 713b 8c44 12be d773 cdbd f782 a7be
00000270: 812d c0bd a044 883e 83af 41be 6fa7 913e
00000280: 5ab4 723e a8c7 0c3e 60bb 873e 3fb2 8a3e
00000290: ecc6 503e fff0 cd3d 5f7a 913d 23e1 c33e
000002a0: 5c38 943d b217 933b 02d8 0f3b e132 47be
000002b0: 990b 983e 2c05 563e 4115 4dbe 40c6 26be
000002c0: eebe 50be 6803 80be b7bb c3bd 7b12 5b3e
000002d0: feb2 5dbe cce7 58bd 6ed2 b23d 3687 6ebd
000002e0: ab4e 99be 9890 a63e 4fc2 bbbe cca6 fdbd
000002f0: 8dd4 91be fd4b 37be dabd 213e 77cb 1bbe
00000300: 99f3 c73f ef69 15be 850c 213f 738c cabd
00000310: 85d9 25be 60d3 eabe 8fe7 89be 4cac 9f3e
00000320: 30fb cd3e 80b7 af3d 1a72 acbb a795 3bbe
00000330: e741 13bf e5e8 4ebe 08f7 083f 1b2a e6bd
00000340: 779a 9b3e b022 abbc 131d babe f083 a3be
00000350: ba39 293d 01ec 1fbd c4ea be3c 8c5a 883c
00000360: 4e78 86bd f00e a9bc c3b6 0dbd 940a 353d
00000370: 2023 753b 5ed3 5d3d 3c0c 89bd c036 48bb
00000380: c0c8 5abb a4d6 ef3c 3855 73bc 86e6 19bd
00000390: 0018 3f3c 2ca2 c6bc caa2 153d 5aea 8dbd
000003a0: ea1c 5b3d c80c 7ebc 9a9d 133d 6ebf 6d3d
000003b0: 646a 57bc 9c43 8bbd cc6f 673d 5d39 7bbd
000003c0: 8a50 43bd f696 9cbc 3c69 eb3c 285f 86bc
000003d0: 79ad f7bd 3869 1b3f 9981 ce3e 5ffc 003f
000003e0: 2fc3 c1bd cac1 ac3e 1177 cdbe 120e eebd
000003f0: c748 8fbd 56dc b03d 1c81 1dbf 615f 573c
0.46430078 0.92436916 -0.15026723 0.81161076 -0.94744575 0.8394533 -0.30745122 0.5036031
0.45860142 -0.036826085 -0.5620022 -0.34623954 0.50548047 -0.78030634 -0.84071773 -0.074015744
0.017209858 0.5497019 0.065749615 -0.4643494 -0.47621977 -0.22106244 -0.07179138 -0.15051562
0.21233973 -0.058315698 -0.039750908 0.030821076 -0.0120042 0.06500947 -0.026183885 0.002676271
0.05769173 -0.05799049 -0.070921436 -0.047539152 -0.009335898 0.018061563 -0.04009562 -0.03843873
0.035142537 0.050426207 -0.048877735 0.024865134 0.0043670163 0.02003298 -0.054829337 0.0038134754
0.062767096 -0.014056176 0.045986734 0.0016511828 -0.21525608 -0.04439659 -0.072657004 -0.026952628
0.070160635 0.022878297 -0.0252807 -0.12724164 -0.03641412 0.021884857 0.12713304 -0.064301744
-0.17029712 -0.10296143 0.19885845 -0.0353919 -0.31662294 0.24642761 0.1643745 0.23443972
-0.11851946 -0.115189455 0.22367501 0.09797015 0.16897172 0.03098126 0.3082878 0.41313043
-0.14070255 0.016496353 -0.10356975 0.2517806 -0.07218458 0.0426829 -0.25425315 0.14321019
-0.47172484 -0.051079087 -0.023348229 -0.15800354 0.047099356 -0.16948037 0.16163348 -0.16383483
0.47311807 -0.18257451 -0.092110895 0.42122447 0.1501824 0.009731268 -0.0637498 0.14442858
-0.21879677 0.1827325 -0.10084141 -0.17320988 -0.06185689 0.42805088 -0.06740001 -0.19756098
0.43425387 0.22281645 -0.16880815 -0.4568053 0.502878 0.122594096 0.23259309 0.20919591
-0.13438839 0.17414196 -0.014091197 -0.009239626 -0.10303394 0.34306028 0.34722358 0.22119196
0.047348585 -0.11775178 -0.364003 -0.32572868 0.077098876 -0.037445407 -0.13483275 0.26683617
0.13740382 0.35946706 -0.29461402 -0.2946001 0.04569317 -0.09508369 -0.13611071 0.03164426
-0.052605886 -0.059621405 -0.09488682 -0.0024602346 0.10704064 0.15490033 -0.22944006 0.22743067
0.0036884963 -0.14283961 -0.1003186 -0.32717106 -0.09383679 0.26614857 -0.18914609 0.28448054
0.23701611 0.13748038 0.26510143 0.27089116 0.20388383 0.10055732 0.071034186 0.38257703
0.07237312 0.0044889087 0.002194882 -0.19453003 0.29696348 0.2090041 -0.20027639 -0.16286564
-0.20385334 -0.250026 -0.09557288 0.21393768 -0.21650311 -0.052955434 0.087315425 -0.058234416
-0.2994283 0.3253219 -0.36671683 -0.123853296 -0.28482476 -0.17900081 0.15795079 -0.15214334
1.5621215 -0.14591192 0.6290973 -0.0989007 -0.16196258 -0.4586439 -0.26934478 0.3118614
0.40230703 0.08579922 -0.0052626254 -0.18318807 -0.57522434 -0.2020603 0.5350194 -0.112385
0.30391285 -0.020890564 -0.36350307 -0.31936598 0.041314818 -0.03904343 0.023305304 0.016644739
-0.06565915 -0.020637006 -0.034598123 0.04419954 0.003740497 0.054156654 -0.06691787 -0.0030550212
-0.0033383816 0.029277153 -0.014851861 -0.03757336 0.011663437 -0.024247251 0.0365322 -0.06929465
0.05349437 -0.015505977 0.036038972 0.05804389 -0.013147924 -0.06800005 0.056503102 -0.061334003
-0.04768423 -0.019114953 0.028736703 -0.016402796 -0.12093634 0.60707426 0.4033325 0.5038509
-0.094610564 0.337416 -0.40129903 -0.116237774 -0.06996303 0.08635776 -0.6152513 0.013145299

bias f4 [18]
00000000: 0e23 afbc 91c8 ba3d 409b 5d3e 9eca 3ebb
00000010: 4f30 fc3e 69a8 713e 01ee 933e 561d 64bf
00000020: 4257 a43b bf3c e4be 305e ccbe 3adf 413f
00000030: 3a7f c1bd a7ec e6be 3cf7 9fbc 555a 10bc
00000040: 7cf3 323c f342 d53e
-0.02137902 0.09120286 0.21641254 -0.0029112468 0.49255607 0.235994 0.2889252 -0.89107263
0.0050152848 -0.44577596 -0.3991561 0.7573124 -0.09448095 -0.45102426 -0.01952707 -0.008810599
0.010922309 0.4165264
